…
2025-12-28 11:40:54,069 - INFO - optimizer: Adam
2025-12-28 11:40:54,069 - INFO - momentum: 0.9
2025-12-28 11:40:54,069 - INFO - device: cuda
2025-12-28 11:40:54,069 - INFO - log_interval: 1
2025-12-28 11:40:54,070 - INFO - save_interval: 1
2025-12-28 11:40:54,070 - INFO - save_path: E:/AFCI/checkpoints
2025-12-28 11:40:54,070 - INFO - n_runs: 5
2025-12-28 11:40:54,070 - INFO - ---------------------------模型结构---------------------------
2025-12-28 11:40:54,070 - INFO - 模型参数量为：863987
2025-12-28 11:40:54,070 - INFO - ADINet(
  (dwt): DWT1DForward()
  (linears): ModuleList(
    (0-1): 2 x Sequential(
      (0): LowRankLinear(
        (linear1): Linear(in_features=125, out_features=64, bias=False)
        (linear2): Linear(in_features=64, out_features=256, bias=True)
      )
      (1): GELU(approximate='none')
      (2): Dropout(p=0.05, inplace=False)
      (3): LowRankLinear(
        (linear1): Linear(in_features=256, out_features=128, bias=False)
        (linear2): Linear(in_features=128, out_features=500, bias=True)
      )
    )
    (2): Sequential(
      (0): LowRankLinear(
        (linear1): Linear(in_features=250, out_features=125, bias=False)
        (linear2): Linear(in_features=125, out_features=512, bias=True)
      )
      (1): GELU(approximate='none')
      (2): Dropout(p=0.05, inplace=False)
      (3): LowRankLinear(
        (linear1): Linear(in_features=512, out_features=256, bias=False)
        (linear2): Linear(in_features=256, out_features=500, bias=True)
      )
    )
  )
  (fc_blocks): ModuleList(
    (0-2): 3 x AGDI(
      (norm): BatchNorm1d(2000, eps=1e-05, momentum=0.1, affine=True, track_running_stats=True)
      (norm1): BatchNorm1d(80, eps=1e-05, momentum=0.1, affine=True, track_running_stats=True)
      (norm2): BatchNorm1d(80, eps=1e-05, momentum=0.1, affine=True, track_running_stats=True)
      (agg): Linear(in_features=20, out_features=20, bias=True)
      (dropout_t): Dropout(p=0.05, inplace=False)
      (fc_block): Sequential(
        (0): Linear(in_features=4, out_features=4, bias=True)
        (1): GELU(approximate='none')
        (2): Dropout(p=0.05, inplace=False)
        (3): Linear(in_features=4, out_features=4, bias=True)
        (4): GELU(approximate='none')
        (5): Dropout(p=0.05, inplace=False)
      )
      (gate_fc): Sequential(
        (0): Linear(in_features=4, out_features=4, bias=True)
        (1): Sigmoid()
      )
      (beta_fc): Sequential(
        (0): AdaptiveAvgPool1d(output_size=1)
        (1): Conv1d(4, 4, kernel_size=(1,), stride=(1,))
        (2): Sigmoid()
      )
    )
  )
  (fc): Sequential(
    (0): Linear(in_features=2000, out_features=125, bias=True)
    (1): GELU(approximate='none')
    (2): Linear(in_features=125, out_features=2, bias=True)
  )
)
2025-12-28 11:40:54,071 - INFO - ========== 开始测试 best_model ==========
2025-12-28 11:40:54,072 - INFO - 加载模型: E:/AFCI/checkpoints/best_model.pth
2025-12-28 11:40:54,072 - INFO - self.dropout: 0.05
2025-12-28 11:40:54,072 - INFO - decompose_layer: 3
2025-12-28 11:40:54,072 - INFO - wave: haar
2025-12-28 11:40:54,072 - INFO - mode: symmetric
2025-12-28 11:40:54,206 - INFO - ---------------------------开始5次best_model测试---------------------------
…
